…
2018-10-02 01:22:41.492164: I tensorflow/core/common_runtime/gpu/gpu_device.cc:977]      0 
2018-10-02 01:22:41.492168: I tensorflow/core/common_runtime/gpu/gpu_device.cc:990] 0:   N 
2018-10-02 01:22:41.492312: I tensorflow/core/common_runtime/gpu/gpu_device.cc:1103] Created TensorFlow device (/job:localhost/replica:0/task:0/device:GPU:0 with 2774 MB memory) -> physical GPU (device: 0, name: GeForce GTX 980, pci bus id: 0000:01:00.0, compute capability: 5.2)
_________________________________________________________________
Layer (type)                 Output Shape              Param #   
=================================================================
conv2d_1 (Conv2D)            (None, 32, 32, 32)        896       
_________________________________________________________________
activation_1 (Activation)    (None, 32, 32, 32)        0         
_________________________________________________________________
batch_normalization_1 (Batch (None, 32, 32, 32)        128       
_________________________________________________________________
conv2d_2 (Conv2D)            (None, 32, 32, 32)        9248      
_________________________________________________________________
activation_2 (Activation)    (None, 32, 32, 32)        0         
_________________________________________________________________
batch_normalization_2 (Batch (None, 32, 32, 32)        128       
_________________________________________________________________
max_pooling2d_1 (MaxPooling2 (None, 16, 16, 32)        0         
_________________________________________________________________
dropout_1 (Dropout)          (None, 16, 16, 32)        0         
_________________________________________________________________
conv2d_3 (Conv2D)            (None, 16, 16, 64)        18496     
_________________________________________________________________
activation_3 (Activation)    (None, 16, 16, 64)        0         
_________________________________________________________________
batch_normalization_3 (Batch (None, 16, 16, 64)        256       
_________________________________________________________________
conv2d_4 (Conv2D)            (None, 16, 16, 64)        36928     
_________________________________________________________________
activation_4 (Activation)    (None, 16, 16, 64)        0         
_________________________________________________________________
batch_normalization_4 (Batch (None, 16, 16, 64)        256       
_________________________________________________________________
max_pooling2d_2 (MaxPooling2 (None, 8, 8, 64)          0         
_________________________________________________________________
dropout_2 (Dropout)          (None, 8, 8, 64)          0         
_________________________________________________________________
conv2d_5 (Conv2D)            (None, 8, 8, 128)         73856     
_________________________________________________________________
activation_5 (Activation)    (None, 8, 8, 128)         0         
_________________________________________________________________
batch_normalization_5 (Batch (None, 8, 8, 128)         512       
_________________________________________________________________
conv2d_6 (Conv2D)            (None, 8, 8, 128)         147584    
_________________________________________________________________
activation_6 (Activation)    (None, 8, 8, 128)         0         
_________________________________________________________________
batch_normalization_6 (Batch (None, 8, 8, 128)         512       
_________________________________________________________________
max_pooling2d_3 (MaxPooling2 (None, 4, 4, 128)         0         
_________________________________________________________________
dropout_3 (Dropout)          (None, 4, 4, 128)         0         
_________________________________________________________________
flatten_1 (Flatten)          (None, 2048)              0         
_________________________________________________________________
dense_1 (Dense)              (None, 10)                20490     
=================================================================
Total params: 309,290
Trainable params: 308,394
Non-trainable params: 896
_________________________________________________________________
Epoch 1/125
781/781 [==============================] - 17s 22ms/step - loss: 1.8861 - acc: 0.4272 - val_loss: 1.3149 - val_acc: 0.5865
Epoch 2/125
781/781 [==============================] - 16s 20ms/step - loss: 1.2498 - acc: 0.5945 - val_loss: 1.0737 - val_acc: 0.6725
…
