…
2018-10-04 00:18:07.247495: I tensorflow/core/common_runtime/gpu/gpu_device.cc:1103] Created TensorFlow device (/job:localhost/replica:0/task:0/device:GPU:1 with 3599 MB memory) -> physical GPU (device: 1, name: GeForce GTX 970, pci bus id: 0000:02:00.0, compute capability: 5.2)
__________________________________________________________________________________________________
Layer (type)                    Output Shape         Param #     Connected to                     
==================================================================================================
input_1 (InputLayer)            (None, 32, 32, 3)    0                                            
__________________________________________________________________________________________________
conv2d_2 (Conv2D)               (None, 32, 32, 16)   448         input_1[0][0]                    
__________________________________________________________________________________________________
batch_normalization_1 (BatchNor (None, 32, 32, 16)   64          conv2d_2[0][0]                   
__________________________________________________________________________________________________
activation_1 (Activation)       (None, 32, 32, 16)   0           batch_normalization_1[0][0]      
__________________________________________________________________________________________________
conv2d_3 (Conv2D)               (None, 32, 32, 16)   2320        activation_1[0][0]               
__________________________________________________________________________________________________
batch_normalization_2 (BatchNor (None, 32, 32, 16)   64          conv2d_3[0][0]                   
__________________________________________________________________________________________________
activation_2 (Activation)       (None, 32, 32, 16)   0           batch_normalization_2[0][0]      
__________________________________________________________________________________________________
conv2d_4 (Conv2D)               (None, 32, 32, 16)   2320        activation_2[0][0]               
__________________________________________________________________________________________________
batch_normalization_3 (BatchNor (None, 32, 32, 16)   64          conv2d_4[0][0]                   
__________________________________________________________________________________________________
add_1 (Add)                     (None, 32, 32, 16)   0           conv2d_2[0][0]                   
                                                                 batch_normalization_3[0][0]      
__________________________________________________________________________________________________
activation_3 (Activation)       (None, 32, 32, 16)   0           add_1[0][0]                      
__________________________________________________________________________________________________
max_pooling2d_1 (MaxPooling2D)  (None, 16, 16, 16)   0           activation_3[0][0]               
__________________________________________________________________________________________________
conv2d_6 (Conv2D)               (None, 16, 16, 32)   4640        max_pooling2d_1[0][0]            
__________________________________________________________________________________________________
batch_normalization_4 (BatchNor (None, 16, 16, 32)   128         conv2d_6[0][0]                   
__________________________________________________________________________________________________
activation_4 (Activation)       (None, 16, 16, 32)   0           batch_normalization_4[0][0]      
__________________________________________________________________________________________________
conv2d_7 (Conv2D)               (None, 16, 16, 32)   9248        activation_4[0][0]               
__________________________________________________________________________________________________
batch_normalization_5 (BatchNor (None, 16, 16, 32)   128         conv2d_7[0][0]                   
__________________________________________________________________________________________________
activation_5 (Activation)       (None, 16, 16, 32)   0           batch_normalization_5[0][0]      
__________________________________________________________________________________________________
conv2d_8 (Conv2D)               (None, 16, 16, 32)   9248        activation_5[0][0]               
__________________________________________________________________________________________________
batch_normalization_6 (BatchNor (None, 16, 16, 32)   128         conv2d_8[0][0]                   
__________________________________________________________________________________________________
add_2 (Add)                     (None, 16, 16, 32)   0           conv2d_6[0][0]                   
                                                                 batch_normalization_6[0][0]      
__________________________________________________________________________________________________
activation_6 (Activation)       (None, 16, 16, 32)   0           add_2[0][0]                      
__________________________________________________________________________________________________
max_pooling2d_2 (MaxPooling2D)  (None, 8, 8, 32)     0           activation_6[0][0]               
__________________________________________________________________________________________________
conv2d_10 (Conv2D)              (None, 8, 8, 64)     18496       max_pooling2d_2[0][0]            
__________________________________________________________________________________________________
batch_normalization_7 (BatchNor (None, 8, 8, 64)     256         conv2d_10[0][0]                  
__________________________________________________________________________________________________
activation_7 (Activation)       (None, 8, 8, 64)     0           batch_normalization_7[0][0]      
__________________________________________________________________________________________________
conv2d_11 (Conv2D)              (None, 8, 8, 64)     36928       activation_7[0][0]               
__________________________________________________________________________________________________
batch_normalization_8 (BatchNor (None, 8, 8, 64)     256         conv2d_11[0][0]                  
__________________________________________________________________________________________________
activation_8 (Activation)       (None, 8, 8, 64)     0           batch_normalization_8[0][0]      
__________________________________________________________________________________________________
conv2d_12 (Conv2D)              (None, 8, 8, 64)     36928       activation_8[0][0]               
__________________________________________________________________________________________________
batch_normalization_9 (BatchNor (None, 8, 8, 64)     256         conv2d_12[0][0]                  
__________________________________________________________________________________________________
add_3 (Add)                     (None, 8, 8, 64)     0           conv2d_10[0][0]                  
                                                                 batch_normalization_9[0][0]      
__________________________________________________________________________________________________
activation_9 (Activation)       (None, 8, 8, 64)     0           add_3[0][0]                      
__________________________________________________________________________________________________
average_pooling2d_1 (AveragePoo (None, 1, 1, 64)     0           activation_9[0][0]               
__________________________________________________________________________________________________
flatten_1 (Flatten)             (None, 64)           0           average_pooling2d_1[0][0]        
__________________________________________________________________________________________________
dense_1 (Dense)                 (None, 10)           650         flatten_1[0][0]                  
==================================================================================================
Total params: 122,570
Trainable params: 121,898
Non-trainable params: 672
__________________________________________________________________________________________________
Learning rate:  0.001
Epoch 1/200
Learning rate:  0.001
1250/1250 [==============================] - 16s 13ms/step - loss: 1.4749 - acc: 0.4770 - val_loss: 1.3086 - val_acc: 0.5653
…
