…
2018-10-03 19:44:35.382327: I tensorflow/core/common_runtime/gpu/gpu_device.cc:1103] Created TensorFlow device (/job:localhost/replica:0/task:0/device:GPU:0 with 2856 MB memory) -> physical GPU (device: 0, name: GeForce GTX 980, pci bus id: 0000:01:00.0, compute capability: 5.2)
2018-10-03 19:44:35.404692: I tensorflow/core/common_runtime/gpu/gpu_device.cc:1103] Created TensorFlow device (/job:localhost/replica:0/task:0/device:GPU:1 with 3599 MB memory) -> physical GPU (device: 1, name: GeForce GTX 970, pci bus id: 0000:02:00.0, compute capability: 5.2)
_________________________________________________________________
Layer (type)                 Output Shape              Param #   
=================================================================
conv2d_1 (Conv2D)            (None, 32, 32, 32)        1568      
_________________________________________________________________
activation_1 (Activation)    (None, 32, 32, 32)        0         
_________________________________________________________________
batch_normalization_1 (Batch (None, 32, 32, 32)        128       
_________________________________________________________________
conv2d_2 (Conv2D)            (None, 32, 32, 32)        4128      
_________________________________________________________________
activation_2 (Activation)    (None, 32, 32, 32)        0         
_________________________________________________________________
conv2d_3 (Conv2D)            (None, 32, 32, 32)        9248      
_________________________________________________________________
activation_3 (Activation)    (None, 32, 32, 32)        0         
_________________________________________________________________
batch_normalization_2 (Batch (None, 32, 32, 32)        128       
_________________________________________________________________
max_pooling2d_1 (MaxPooling2 (None, 16, 16, 32)        0         
_________________________________________________________________
dropout_1 (Dropout)          (None, 16, 16, 32)        0         
_________________________________________________________________
conv2d_4 (Conv2D)            (None, 16, 16, 64)        18496     
_________________________________________________________________
activation_4 (Activation)    (None, 16, 16, 64)        0         
_________________________________________________________________
batch_normalization_3 (Batch (None, 16, 16, 64)        256       
_________________________________________________________________
conv2d_5 (Conv2D)            (None, 16, 16, 64)        102464    
_________________________________________________________________
activation_5 (Activation)    (None, 16, 16, 64)        0         
_________________________________________________________________
batch_normalization_4 (Batch (None, 16, 16, 64)        256       
_________________________________________________________________
conv2d_6 (Conv2D)            (None, 16, 16, 64)        65600     
_________________________________________________________________
activation_6 (Activation)    (None, 16, 16, 64)        0         
_________________________________________________________________
batch_normalization_5 (Batch (None, 16, 16, 64)        256       
_________________________________________________________________
max_pooling2d_2 (MaxPooling2 (None, 8, 8, 64)          0         
_________________________________________________________________
dropout_2 (Dropout)          (None, 8, 8, 64)          0         
_________________________________________________________________
conv2d_7 (Conv2D)            (None, 8, 8, 128)         73856     
_________________________________________________________________
activation_7 (Activation)    (None, 8, 8, 128)         0         
_________________________________________________________________
batch_normalization_6 (Batch (None, 8, 8, 128)         512       
_________________________________________________________________
conv2d_8 (Conv2D)            (None, 8, 8, 128)         147584    
_________________________________________________________________
activation_8 (Activation)    (None, 8, 8, 128)         0         
_________________________________________________________________
batch_normalization_7 (Batch (None, 8, 8, 128)         512       
_________________________________________________________________
max_pooling2d_3 (MaxPooling2 (None, 4, 4, 128)         0         
_________________________________________________________________
dropout_3 (Dropout)          (None, 4, 4, 128)         0         
_________________________________________________________________
flatten_1 (Flatten)          (None, 2048)              0         
_________________________________________________________________
dense_1 (Dense)              (None, 10)                20490     
=================================================================
Total params: 445,482
Trainable params: 444,458
Non-trainable params: 1,024
_________________________________________________________________
Train on 40000 samples, validate on 10000 samples
Epoch 1/64
40000/40000 [==============================] - 13s 335us/step - loss: 2.1084 - acc: 0.3892 - val_loss: 1.6085 - val_acc: 0.4856
…
