…
2018-10-04 15:57:16.887504: I tensorflow/core/common_runtime/gpu/gpu_device.cc:1103] Created TensorFlow device (/job:localhost/replica:0/task:0/device:GPU:0 with 2992 MB memory) -> physical GPU (device: 0, name: GeForce GTX 980, pci bus id: 0000:01:00.0, compute capability: 5.2)
2018-10-04 15:57:16.915012: I tensorflow/core/common_runtime/gpu/gpu_device.cc:1103] Created TensorFlow device (/job:localhost/replica:0/task:0/device:GPU:1 with 3599 MB memory) -> physical GPU (device: 1, name: GeForce GTX 970, pci bus id: 0000:02:00.0, compute capability: 5.2)
Learning rate:  0.001
_________________________________________________________________
Layer (type)                 Output Shape              Param #   
=================================================================
conv2d_1 (Conv2D)            (None, 32, 32, 32)        416       
_________________________________________________________________
batch_normalization_1 (Batch (None, 32, 32, 32)        128       
_________________________________________________________________
activation_1 (Activation)    (None, 32, 32, 32)        0         
_________________________________________________________________
conv2d_2 (Conv2D)            (None, 32, 32, 32)        16416     
_________________________________________________________________
batch_normalization_2 (Batch (None, 32, 32, 32)        128       
_________________________________________________________________
activation_2 (Activation)    (None, 32, 32, 32)        0         
_________________________________________________________________
max_pooling2d_1 (MaxPooling2 (None, 16, 16, 32)        0         
_________________________________________________________________
conv2d_3 (Conv2D)            (None, 16, 16, 64)        32832     
_________________________________________________________________
batch_normalization_3 (Batch (None, 16, 16, 64)        256       
_________________________________________________________________
activation_3 (Activation)    (None, 16, 16, 64)        0         
_________________________________________________________________
conv2d_4 (Conv2D)            (None, 16, 16, 64)        16448     
_________________________________________________________________
batch_normalization_4 (Batch (None, 16, 16, 64)        256       
_________________________________________________________________
activation_4 (Activation)    (None, 16, 16, 64)        0         
_________________________________________________________________
max_pooling2d_2 (MaxPooling2 (None, 8, 8, 64)          0         
_________________________________________________________________
conv2d_5 (Conv2D)            (None, 8, 8, 128)         32896     
_________________________________________________________________
batch_normalization_5 (Batch (None, 8, 8, 128)         512       
_________________________________________________________________
activation_5 (Activation)    (None, 8, 8, 128)         0         
_________________________________________________________________
conv2d_6 (Conv2D)            (None, 8, 8, 128)         147584    
_________________________________________________________________
batch_normalization_6 (Batch (None, 8, 8, 128)         512       
_________________________________________________________________
activation_6 (Activation)    (None, 8, 8, 128)         0         
_________________________________________________________________
max_pooling2d_3 (MaxPooling2 (None, 4, 4, 128)         0         
_________________________________________________________________
flatten_1 (Flatten)          (None, 2048)              0         
_________________________________________________________________
dense_1 (Dense)              (None, 10)                20490     
=================================================================
Total params: 268,874
Trainable params: 267,978
Non-trainable params: 896
_________________________________________________________________
Epoch 1/200
Learning rate:  0.001
1407/1406 [==============================] - 18s 13ms/step - loss: 1.6357 - acc: 0.4411 - val_loss: 1.4933 - val_acc: 0.5510
Epoch 2/200
Learning rate:  0.001
…
