…
2018-10-02 21:29:22.795226: I tensorflow/core/common_runtime/gpu/gpu_device.cc:977]      0 
2018-10-02 21:29:22.795231: I tensorflow/core/common_runtime/gpu/gpu_device.cc:990] 0:   N 
2018-10-02 21:29:22.795365: I tensorflow/core/common_runtime/gpu/gpu_device.cc:1103] Created TensorFlow device (/job:localhost/replica:0/task:0/device:GPU:0 with 2681 MB memory) -> physical GPU (device: 0, name: GeForce GTX 980, pci bus id: 0000:01:00.0, compute capability: 5.2)
_________________________________________________________________
Layer (type)                 Output Shape              Param #   
=================================================================
conv2d_1 (Conv2D)            (None, 32, 32, 32)        6176      
_________________________________________________________________
activation_1 (Activation)    (None, 32, 32, 32)        0         
_________________________________________________________________
batch_normalization_1 (Batch (None, 32, 32, 32)        128       
_________________________________________________________________
conv2d_2 (Conv2D)            (None, 32, 32, 32)        16416     
_________________________________________________________________
activation_2 (Activation)    (None, 32, 32, 32)        0         
_________________________________________________________________
batch_normalization_2 (Batch (None, 32, 32, 32)        128       
_________________________________________________________________
max_pooling2d_1 (MaxPooling2 (None, 15, 15, 32)        0         
_________________________________________________________________
dropout_1 (Dropout)          (None, 15, 15, 32)        0         
_________________________________________________________________
conv2d_3 (Conv2D)            (None, 15, 15, 64)        131136    
_________________________________________________________________
activation_3 (Activation)    (None, 15, 15, 64)        0         
_________________________________________________________________
batch_normalization_3 (Batch (None, 15, 15, 64)        256       
_________________________________________________________________
conv2d_4 (Conv2D)            (None, 15, 15, 64)        65600     
_________________________________________________________________
activation_4 (Activation)    (None, 15, 15, 64)        0         
_________________________________________________________________
batch_normalization_4 (Batch (None, 15, 15, 64)        256       
_________________________________________________________________
max_pooling2d_2 (MaxPooling2 (None, 6, 6, 64)          0         
_________________________________________________________________
dropout_2 (Dropout)          (None, 6, 6, 64)          0         
_________________________________________________________________
conv2d_5 (Conv2D)            (None, 6, 6, 128)         524416    
_________________________________________________________________
activation_5 (Activation)    (None, 6, 6, 128)         0         
_________________________________________________________________
batch_normalization_5 (Batch (None, 6, 6, 128)         512       
_________________________________________________________________
conv2d_6 (Conv2D)            (None, 6, 6, 128)         262272    
_________________________________________________________________
activation_6 (Activation)    (None, 6, 6, 128)         0         
_________________________________________________________________
batch_normalization_6 (Batch (None, 6, 6, 128)         512       
_________________________________________________________________
max_pooling2d_3 (MaxPooling2 (None, 2, 2, 128)         0         
_________________________________________________________________
dropout_3 (Dropout)          (None, 2, 2, 128)         0         
_________________________________________________________________
flatten_1 (Flatten)          (None, 512)               0         
_________________________________________________________________
dense_1 (Dense)              (None, 10)                5130      
=================================================================
Total params: 1,012,938
Trainable params: 1,012,042
Non-trainable params: 896
_________________________________________________________________
Epoch 1/125
781/781 [==============================] - 20s 26ms/step - loss: 1.9160 - acc: 0.4045 - val_loss: 1.7029 - val_acc: 0.4718
Epoch 2/125
781/781 [==============================] - 18s 24ms/step - loss: 1.4556 - acc: 0.5417 - val_loss: 1.2652 - val_acc: 0.5917
…
